…
<span id="cb2-3"><span class="im" style="color: #00769E;
background-color: null;
font-style: inherit;">from</span> torchsummary <span class="im" style="color: #00769E;
background-color: null;
font-style: inherit;">import</span> summary</span>
<span id="cb2-4">summary(model, (<span class="dv" style="color: #AD0000;
background-color: null;
font-style: inherit;">1</span>,))</span></code></pre></div>
<pre><code>----------------------------------------------------------------
        Layer (type)               Output Shape         Param #
================================================================
            Linear-1                   [-1, 10]              20
              GELU-2                   [-1, 10]               0
            Linear-3                   [-1, 10]             110
              SELU-4                   [-1, 10]               0
            Linear-5                    [-1, 1]              11
================================================================
Total params: 141
Trainable params: 141
Non-trainable params: 0
----------------------------------------------------------------
Input size (MB): 0.00
Forward/backward pass size (MB): 0.00
Params size (MB): 0.00
Estimated Total Size (MB): 0.00
----------------------------------------------------------------</code></pre>
<ol start="2" type="1">
…
