…
 and training torch.nn models. Use FuncAnimation from matplotlib or Celluloid for animation.\n\n1.1 Data Generation\nimport numpy as np\n\nnp.random.seed(0)\nX = np.linspace(0, 1, 100)\nnoise = np.random.normal(0, 0.05, 100)\ny = np.sin(2 * np.pi * X) + noise\n1.2 Model Summary\nmodel = ... # Your model\n\nfrom torchsummary import summary\nsummary(model, (1,))\n----------------------------------------------------------------\n        Layer (type)               Output Shape         Param #\n================================================================\n            Linear-1                   [-1, 10]              20\n              GELU-2                   [-1, 10]               0\n            Linear-3                   [-1, 10]             110\n              SELU-4                   [-1, 10]               0\n            Linear-5                    [-1, 1]              11\n================================================================\nTotal params: 141\nTrainable params: 141\nNon-trainable params: 0\n----------------------------------------------------------------\nInput size (MB): 0.00\nForward/backward pass size (MB): 0.00\nParams size (MB): 0.00\nEstimated Total Size (MB): 0.00\n----------------------------------------------------------------\n\n[Total marks
…
